…
2024-11-24 16:19:07,065 - INFO - NoneScaler
2024-11-24 16:21:56,634 - INFO - ASTGCN(
  (hours_ASTGCN_submodule): ASTGCNSubmodule(
    (BlockList): ModuleList(
      (0): ASTGCNBlock(
        (TAt): TemporalAttentionLayer()
        (SAt): SpatialAttentionLayer()
        (cheb_conv_SAt): ChebConvWithSAt(
          (Theta): ParameterList(
              (0): Parameter containing: [torch.cuda.FloatTensor of size 1x64 (GPU 0)]
              (1): Parameter containing: [torch.cuda.FloatTensor of size 1x64 (GPU 0)]
              (2): Parameter containing: [torch.cuda.FloatTensor of size 1x64 (GPU 0)]
          )
        )
        (time_conv): Conv2d(64, 64, kernel_size=(1, 3), stride=(1, 2), padding=(0, 1))
        (residual_conv): Conv2d(1, 64, kernel_size=(1, 1), stride=(1, 2))
        (ln): LayerNorm((64,), eps=1e-05, elementwise_affine=True)
      )
      (1): ASTGCNBlock(
        (TAt): TemporalAttentionLayer()
        (SAt): SpatialAttentionLayer()
        (cheb_conv_SAt): ChebConvWithSAt(
          (Theta): ParameterList(
              (0): Parameter containing: [torch.cuda.FloatTensor of size 64x64 (GPU 0)]
              (1): Parameter containing: [torch.cuda.FloatTensor of size 64x64 (GPU 0)]
              (2): Parameter containing: [torch.cuda.FloatTensor of size 64x64 (GPU 0)]
          )
        )
        (time_conv): Conv2d(64, 64, kernel_size=(1, 3), stride=(1, 1), padding=(0, 1))
        (residual_conv): Conv2d(64, 64, kernel_size=(1, 1), stride=(1, 1))
        (ln): LayerNorm((64,), eps=1e-05, elementwise_affine=True)
      )
    )
    (final_conv): Conv2d(12, 12, kernel_size=(1, 64), stride=(1, 1))
    (fusionlayer): FusionLayer()
  )
  (days_ASTGCN_submodule): ASTGCNSubmodule(
    (BlockList): ModuleList(
      (0): ASTGCNBlock(
        (TAt): TemporalAttentionLayer()
        (SAt): SpatialAttentionLayer()
        (cheb_conv_SAt): ChebConvWithSAt(
          (Theta): ParameterList(
              (0): Parameter containing: [torch.cuda.FloatTensor of size 1x64 (GPU 0)]
              (1): Parameter containing: [torch.cuda.FloatTensor of size 1x64 (GPU 0)]
              (2): Parameter containing: [torch.cuda.FloatTensor of size 1x64 (GPU 0)]
          )
        )
        (time_conv): Conv2d(64, 64, kernel_size=(1, 3), stride=(1, 1), padding=(0, 1))
        (residual_conv): Conv2d(1, 64, kernel_size=(1, 1), stride=(1, 1))
        (ln): LayerNorm((64,), eps=1e-05, elementwise_affine=True)
      )
      (1): ASTGCNBlock(
        (TAt): TemporalAttentionLayer()
        (SAt): SpatialAttentionLayer()
        (cheb_conv_SAt): ChebConvWithSAt(
          (Theta): ParameterList(
              (0): Parameter containing: [torch.cuda.FloatTensor of size 64x64 (GPU 0)]
              (1): Parameter containing: [torch.cuda.FloatTensor of size 64x64 (GPU 0)]
              (2): Parameter containing: [torch.cuda.FloatTensor of size 64x64 (GPU 0)]
          )
        )
        (time_conv): Conv2d(64, 64, kernel_size=(1, 3), stride=(1, 1), padding=(0, 1))
        (residual_conv): Conv2d(64, 64, kernel_size=(1, 1), stride=(1, 1))
        (ln): LayerNorm((64,), eps=1e-05, elementwise_affine=True)
      )
    )
    (final_conv): Conv2d(12, 12, kernel_size=(1, 64), stride=(1, 1))
    (fusionlayer): FusionLayer()
  )
  (weeks_ASTGCN_submodule): ASTGCNSubmodule(
    (BlockList): ModuleList(
      (0): ASTGCNBlock(
        (TAt): TemporalAttentionLayer()
        (SAt): SpatialAttentionLayer()
        (cheb_conv_SAt): ChebConvWithSAt(
          (Theta): ParameterList(
              (0): Parameter containing: [torch.cuda.FloatTensor of size 1x64 (GPU 0)]
              (1): Parameter containing: [torch.cuda.FloatTensor of size 1x64 (GPU 0)]
              (2): Parameter containing: [torch.cuda.FloatTensor of size 1x64 (GPU 0)]
          )
        )
        (time_conv): Conv2d(64, 64, kernel_size=(1, 3), stride=(1, 2), padding=(0, 1))
        (residual_conv): Conv2d(1, 64, kernel_size=(1, 1), stride=(1, 2))
        (ln): LayerNorm((64,), eps=1e-05, elementwise_affine=True)
      )
      (1): ASTGCNBlock(
        (TAt): TemporalAttentionLayer()
        (SAt): SpatialAttentionLayer()
        (cheb_conv_SAt): ChebConvWithSAt(
          (Theta): ParameterList(
              (0): Parameter containing: [torch.cuda.FloatTensor of size 64x64 (GPU 0)]
              (1): Parameter containing: [torch.cuda.FloatTensor of size 64x64 (GPU 0)]
              (2): Parameter containing: [torch.cuda.FloatTensor of size 64x64 (GPU 0)]
          )
        )
        (time_conv): Conv2d(64, 64, kernel_size=(1, 3), stride=(1, 1), padding=(0, 1))
        (residual_conv): Conv2d(64, 64, kernel_size=(1, 1), stride=(1, 1))
        (ln): LayerNorm((64,), eps=1e-05, elementwise_affine=True)
      )
    )
    (final_conv): Conv2d(12, 12, kernel_size=(1, 64), stride=(1, 1))
    (fusionlayer): FusionLayer()
  )
)
2024-11-24 16:21:56,639 - INFO - hours_ASTGCN_submodule.BlockList.0.TAt.U1	torch.Size([207])	cuda:0	True
2024-11-24 16:21:56,639 - INFO - hours_ASTGCN_submodule.BlockList.0.TAt.U2	torch.Size([1, 207])	cuda:0	True
2024-11-24 16:21:56,639 - INFO - hours_ASTGCN_submodule.BlockList.0.TAt.U3	torch.Size([1])	cuda:0	True
2024-11-24 16:21:56,639 - INFO - hours_ASTGCN_submodule.BlockList.0.TAt.be	torch.Size([1, 24, 24])	cuda:0	True
…
